src/weights/best_cae_model.pth (torch, 306429 bytes, 12 tensors)

encoder.0.weight f4 [32, 12, 7]
-0.10898746 0.07485322 -0.103748284 -0.005179957 0.08885752 -0.018326283 -0.06615367 -0.07103463
-0.053812347 -0.047745444 0.011637839 0.09707176 0.025160655 0.015138021 -0.09152429 -0.059156694
0.11913008 0.11949319 0.04412203 0.09221473 0.028312517 -0.17034416 -0.06644677 -0.04807166
0.042269673 -0.090542085 0.052729208 0.031648822 -0.07198303 0.04935562 -0.0021366996 -0.0744594
0.11392308 0.11276524 -0.03495201 -0.005419714 0.0866924 -0.01281291 0.106947035 0.0025896267
0.016308298 0.014906058 -0.0519577 0.056357443 0.0010724713 0.056286093 0.07228982 0.12906107
0.036108844 -0.013269505 0.103717804 -0.07673187 -0.012427801 0.049556565 0.073507644 0.16614707
0.05146743 0.022266531 0.086807005 -0.009434309 0.05079962 0.13357608 0.13748035 0.0031302038
0.09608737 0.04754954 0.20211178 0.076588266 0.027547363 0.13133329 0.09977138 -0.02811999
-0.052123174 0.04950401 0.1819943 -0.015701765 -0.01684848 0.06220053 -0.12203869 -0.026550446
-0.07058455 -0.022355357 0.011677499 -0.07412926 0.08866079 0.19095139 0.048403356 -0.026553534
0.1439466 0.13953441 -0.05772959 0.05995708 0.13599117 -0.03342614 0.00066459115 0.037762698
0.046999335 0.03327596 0.038399745 0.019511728 0.0743248 -0.010412909 0.06134935 0.07422592
-0.037312377 -0.06841648 -0.095368266 0.05814373 0.05608969 0.05643788 -0.10788962 -0.06402821
0.018303307 -0.0039165895 0.10909182 0.013573755 0.055242017 0.025025941 -0.028713752 -0.044271257
0.10484624 0.08677609 -0.09073168 -0.023782523 -0.077121004 -0.068496615 -0.046253555 0.07534131
0.066815525 0.13275611 0.022089979 -0.014630785 0.12886323 -0.028566252 0.0693174 0.12680852
0.05503879 0.02930907 0.043908164 0.14215079 0.04890265 -0.07494512 -0.041802704 0.06989445
0.06977899 -0.066492856 -0.011693309 -0.0154788485 0.054992367 -0.09804061 -0.070807844 -0.10854325
-0.020850338 -0.103611864 0.043968417 -0.1164761 -0.13162784 -0.13601907 -0.088272385 -0.119022965
0.05786087 -0.050566737 0.072976016 -0.029854985 0.11061835 0.13929377 -0.015058288 -0.051071856
0.032234717 0.011063534 -0.090004645 -0.06657886 -0.13536344 -0.032199815 0.0299394 0.005231185
0.16828749 0.14675227 -0.039593566 0.038141258 -0.0812935 0.08840115 -0.039095514 0.038039576
0.10911649 0.045641597 -0.023626702 -0.0953191 0.10980923 0.022874484 0.113569014 -0.07956177
0.03155241 -0.08109461 -0.049226508 0.0007878874 0.0876598 0.07918219 -0.0034577453 0.015532831
0.07239811 -0.03107697 0.07814077 -0.06602079 0.085290276 0.09702263 -0.006745141 -0.010140764
-0.16347535 -0.15458655 -0.005623421 0.045833882 0.07706151 -0.036947936 0.11264256 0.015813509
-0.04958268 0.093937755 -0.053594895 0.1218249 0.10843622 0.016840814 -0.07802099 -0.07718581
-0.1498657 -0.06715562 -0.108087525 -0.12516713 -0.09378317 0.002942177 -0.08194838 0.011016974
-0.021907147 0.0655784 0.07963351 0.051596243 0.2348543 0.21244842 -0.033262387 -0.03169272
-0.07272598 -0.030007023 -0.04652459 -0.12200835 0.006277439 0.023850698 0.12863465 0.08399057
-0.029242024 0.09163813 -0.08671119 -0.04667806 0.028236106 0.15056334 0.08308214 0.023087362
00000000: d134 dfbd a54c 993d fb79 d4bd a1bc a9bb
00000010: eefa b53d 0021 96bc 937b 87bd 9b7a 91bd
00000020: 566a 5cbd ba90 43bd a2ac 3e3c 8fcd c63d
00000030: b81d ce3c 7605 783c 1671 bbbd 4a4e 72bd
00000040: 79fa f33d d8b8 f43d 4db9 343d 14db bc3d
00000050: a7ef e73c b36e 2ebe 3f15 88bd cae6 44bd
00000060: f722 2d3d 216e b9bd 95fa 573d 32a2 013d
00000070: d76b 93bd 1e29 4a3d df07 0cbb 2b7e 98bd
00000080: 8150 e93d 76f1 e63d d729 0fbd db97 b1bb
00000090: c98b b13d 3ded 51bc 0c07 db3d bab6 293b
000000a0: fb98 853c 8a38 743c 99d1 54bd 10d7 663d
000000b0: 2a92 8c3a 3f8c 663d af0c 943d 9628 043e
000000c0: dee6 133d 5768 59bc 006a d43d 9925 9dbd
000000d0: fa9d 4bbc d3fb 4a3d 2d8b 963d 7522 2a3e
000000e0: 83cf 523d 4d68 b63c dfc7 b13d 5c92 1abc
000000f0: 4313 503d 2bc8 083e a6c7 0c3e 1b24 4d3b
00000100: 74c9 c43d 4ec3 423d 64f6 4e3e 4fda 9c3d
00000110: 02ab e13c 3c7c 063e f054 cc3d e55b e6bc
00000120: 1c7f 55bd b7c4 4a3d b75c 3a3e fda0 80bc
00000130: d305 8abc fcc5 7e3d 6cef f9bd 5280 d9bc
00000140: a28e 90bd 9522 b7bc fb52 3f3c 15d1 97bd
00000150: ca93 b53d c388 433e 9942 463d cc86 d9bc
00000160: bd66 133e 1ce2 0e3e dd75 6cbd 8e95 753d
00000170: 4541 0b3e d9e9 08bd f537 2e3a 0fad 1a3d
00000180: 6082 403d 5f4c 083d 0d49 1d3d 0fd7 9f3c
00000190: 9a37 983d e89a 2abc 7549 7b3d c203 983d
000001a0: ddd4 18bd f11d 8cbd 7050 c3bd 1f28 6e3d
000001b0: 4ebe 653d 682b 673d 3cf5 dcbd 3921 83bd
000001c0: d1f0 953c bc56 80bb 886b df3d 7464 5e3c
000001d0: 7445 623d 3403 cd3c 1a39 ebbc c755 35bd
000001e0: a0b9 d63d aab7 b13d 88d1 b9bd 91d3 c2bc
000001f0: 9ef1 9dbd f447 8cbd 5e74 3dbd 8b4c 9a3d
00000200: 94d6 883d 38f1 073e 0bf6 b43c f6b5 6fbc
00000210: b9f4 033e c603 eabc 48f6 8d3d 18da 013e
00000220: 5b70 613d 9319 f03c 0cd9 333d fa8f 113e
00000230: 254e 483d d47c 99bd 5039 2bbd d224 8f3d
00000240: 49e8 8e3d 682d 88bd 4b95 3fbc ff9a 7dbc
00000250: ad3f 613d 84c9 c8bd b403 91bd ec4b debd
00000260: 54ce aabc 7532 d4bd 3a18 343d 068b eebd
00000270: 73c9 06be 9548 0bbe 27c8 b4bd 50c2 f3bd
00000280: 85ff 6c3d 111f 4fbd 7374 953d 7192 f4bc
00000290: e08b e23d 07a3 0e3e 0ab7 76bc b930 51bd
000002a0: 8d08 043d d343 353c 5b54 b8bd 7f5a 88bd
000002b0: b79c 0abe f4e3 03bd 7943 f53c 5c6a ab3b
000002c0: 8e53 2c3e 3a46 163e dd2c 22bd 023a 1c3d
000002d0: 357d a6bd aa0b b53d 9e22 20bd 63cf 1b3d
000002e0: 7778 df3d aff2 3a3d c98c c1bc a936 c3bd
000002f0: a9e3 e03d 4563 bb3c df96 e83d 48f1 a2bd
00000300: 1a3d 013d ee14 a6bd bca1 49bd 3a8a 4e3a
00000310: fb86 b33d 462a a23d 579b 62bb 6a7d 7e3c
00000320: 7645 943d 2195 febc 4508 a03d e835 87bd
00000330: abac ae3d cdb3 c63d 5806 ddbb 7225 26bc
00000340: 1566 27be f04b 1ebe ad44 b8bb 4fbc 3b3d
00000350: 6dd2 9d3d b856 17bd 24b1 e63d 558b 813c
00000360: 3517 4bbd 7062 c03d 5286 5bbd 557f f93d
00000370: cf13 de3d bff5 893c 78c9 9fbd 9813 9ebd
00000380: 6576 19be e388 89bd fe5c ddbd d02b 00be
00000390: 6411 c0bd 8ad1 403b 8dd4 a7bd 8a80 343c
000003a0: 9e76 b3bc f84d 863d e516 a33d 9556 533d
000003b0: a57d 703e 148c 593e 243e 08bd 3ad0 01bd
000003c0: 5cf1 94bd 4ad1 f5bc 9290 3ebd 84df f9bd
000003d0: fab2 cd3b 8a62 c33c cdb8 033e 3f03 ac3d
000003e0: f88c efbc c6ac bb3d a395 b1bd 7e31 3fbd
000003f0: 684f e73c 472d 1a3e f826 aa3d b521 bd3c

encoder.0.bias f4 [32]
-0.13317537 -0.14291658 0.023048013 -0.0772108 0.18857883 0.16051257 0.18916753 -0.024914687
0.06356995 0.10895899 0.122245304 -0.11461968 0.0790862 -0.21251751 0.07027088 0.2237011
0.46824092 -0.15816723 0.2290249 0.38379174 -0.053714026 -0.22559635 -0.098261595 -0.21532278
-0.020251712 -0.028988454 0.21281908 -0.2135772 0.3931185 0.013999365 -0.18432446 0.062143315
00000000: 205f 08be b958 12be 30cf bc3c b220 9ebd
00000010: cf1a 413e 685d 243e 22b5 413e e319 ccbc
00000020: f630 823d e425 df3d bf5b fa3d b9bd eabd
00000030: f2f7 a13d 319e 59be 2eea 8f3d e711 653e
00000040: 46bd ef3e 97f6 21be 8185 6a3e 5a80 c43e
00000050: 3d03 5cbd bb02 67be 603d c9bd 937d 5cbe
00000060: ebe6 a5bc 3279 edbc 3fed 593e fbb3 5abe
00000070: d446 c93e 985d 653c 8dbf 3cbe fd89 7e3d

encoder.2.weight f4 [64, 32, 5]
-0.007316618 0.03428625 -0.08128065 0.0116703035 0.04062951 -0.04439158 -0.08318985 -0.050434582
-0.04407007 -0.0743508 -0.025282277 -0.07621739 0.04114706 0.0002896034 0.019888379 0.013009206
-0.008836679 0.053504348 -0.0625309 0.06350057 0.031331643 0.043468557 -0.062302236 -0.0713589
0.018607749 0.00944109 -0.0029757237 -0.007585461 0.033364043 0.053917203 -0.06292366 0.023218883
-0.056632586 -0.0059013446 -0.038225 0.03663951 -0.05221044 -0.03691059 -0.021607375 -0.042562827
-0.0013280894 0.03273584 -0.020384585 0.011783316 -0.07725112 0.051823564 -0.09146219 0.034038678
-0.012713984 -0.0803328 -0.048110988 -0.002972117 -0.02682435 0.07006024 0.0025892549 0.033106543
-0.04740788 -0.02272497 0.04145116 -0.024694037 0.054965526 -0.09156918 -0.07609223 -0.027735742
-0.023828164 -0.093424685 0.007078649 -0.058869094 0.008281166 -0.0063062785 -0.09286457 -0.052954122
0.0045980862 0.010892369 -0.025112934 0.013053491 -0.02022023 0.06009668 0.0126975225 0.03009816
0.034127165 -0.038191646 -0.010918834 -0.04890084 -0.07440702 0.014003842 0.05113557 0.034095388
-0.045438856 0.0076508904 0.035109036 0.064902365 -0.01910404 -0.06394774 -0.01529039 0.005991713
0.047935188 0.012334783 -0.008873423 -0.06414388 -0.030349623 0.010831175 -0.06017881 -0.026753133
0.014637367 -0.015103615 -0.022854835 -0.07079847 -0.0013767307 0.028005013 -0.015177951 -0.06391718
0.05890881 -0.041697808 0.058374565 -0.0601631 -0.048939813 0.0176406 -0.068003245 0.034269538
0.034065448 0.05900182 -0.05402428 0.050202698 -0.06074082 -0.0772301 -0.005848812 -0.032663345
-0.069670975 -0.013667283 0.032650236 -0.030843532 -0.008243905 -0.044046894 -0.042599324 0.057843048
0.017800562 0.05062276 -0.08183078 -0.062973216 -0.035624802 0.0027720528 -0.07462922 -0.04640451
-0.025010532 0.040633433 -0.07355854 0.061852265 0.04783808 -0.0796724 -0.013041225 0.059881676
-0.07896996 -0.02471709 -0.01120582 -0.07248244 0.04884351 -0.04570375 -0.029874716 0.03877012
0.12156118 0.008084842 0.122366406 0.06844798 0.013674078 0.008307168 -0.01176964 -0.07890456
-0.096225016 -0.06380517 -0.00035078204 -0.03481243 -0.011911069 -0.0727519 -0.08643082 0.067097366
0.08907709 -0.007879143 0.0840887 -0.06398703 0.062686674 0.0108190905 0.012432751 -0.010059304
-0.06626353 0.17583139 0.019782584 0.1363594 0.12647542 0.1424835 -0.02478054 -0.008097388
-0.1141684 -0.112591684 -0.013251687 0.051713813 0.01681184 -0.062480804 -0.066984184 -0.041506328
-0.058726724 0.028518628 -0.096896805 -0.074924625 -0.03225134 0.0044969236 -0.0797425 0.014941505
0.098559335 -0.036920052 0.0073626116 -0.06347567 0.018285263 -0.0077185472 0.03877102 0.053420175
0.09478745 0.11669029 -0.007198023 -0.05173951 0.02358952 -0.05135772 0.030508652 0.10922303
-0.005575273 0.0603134 -0.041668702 0.04743777 0.027344488 0.09510919 -0.039523967 0.088699855
-0.03627915 0.10964307 -0.041932642 0.01999578 0.074031524 -0.003077073 -0.087788425 -0.093995325
0.107595414 0.10090936 0.20440526 0.01327821 0.20193478 0.024661412 0.047908265 0.009193643
0.066689394 0.02855817 0.038077366 -0.09968684 0.04228525 0.26890492 -0.58430296 0.14745009
00000000: 3ec0 efbb bd6f 0c3d 7876 a6bd cd34 3f3c
00000010: 216b 263d f2d3 35bd 715f aabd 7e94 4ebd
00000020: d182 34bd 3b45 98bd c71c cfbc dd17 9cbd
00000030: d289 283d e9d5 9739 f4ec a23c 9124 553c
00000040: b8c7 10bc 6027 5b3d 3310 80bd 960c 823d
00000050: 9c55 003d 160c 323d a130 7fbd 9d24 92bd
00000060: 476f 983c cdae 1a3c 5c04 43bb 758f f8bb
00000070: bca8 083d 49d8 5c3d 1fde 80bd 8735 be3c
00000080: 92f7 67bd 1160 c1bb d191 1cbd 5013 163d
00000090: 9dda 55bd 8f2f 17bd f301 b1bc 5c56 2ebd
000000a0: 4913 aeba 0416 063d 93fd a6bc cf0e 413c
000000b0: d635 9ebd f244 543d 8750 bbbd 246c 0b3d
000000c0: 504e 50bc 8685 a4bd 0710 45bd d9c7 42bb
000000d0: bdbe dbbc be7b 8f3d 7db0 293b ba9a 073d
000000e0: c42e 42bd b729 babc b1c8 293d 264b cabc
000000f0: 8823 613d 9f88 bbbd 3ed6 9bbd 1136 e3bc
00000100: 4833 c3bc 7155 bfbd 03f4 e73b b820 71bd
00000110: baad 073c e6a4 cebb c82f bebd 6ce6 58bd
00000120: 8bab 963b e875 323c a4b9 cdbc 4fde 553c
00000130: e5a4 a5bc f027 763d 4509 503c 6b90 f63c
00000140: edc8 0b3d d86e 1cbd e9e4 32bc 3f4c 48bd
00000150: b562 98bd 5f70 653c 8873 513d 9ba7 0b3d
00000160: 181e 3abd 52b4 fa3b 7ece 0f3d 88eb 843d
00000170: 1380 9cbc 08f7 82bd 8b84 7abc 2256 c43b
00000180: b057 443d d417 4a3c d561 11bc de5d 83bd
00000190: c69f f8bc 3e75 313c 0e7e 76bd 6329 dbbc
000001a0: 91d1 6f3c 2775 77bc 103a bbbc cafe 90bd
000001b0: 6b73 b4ba c56a e53c f1ac 78bc 03e7 82bd
000001c0: 5d4a 713d 52cb 2abd 2b1a 6f3d 956d 76bd
000001d0: 1d75 48bd 0583 903c 4945 8bbd 375e 0c3d
000001e0: 3688 0b3d e4ab 713d 9048 5dbd 58a1 4d3d
000001f0: 5ecb 78bd d12a 9ebd 64a7 bfbb 00ca 05bd
00000200: a8af 8ebd bdec 5fbc 41bc 053d 93ab fcbc
00000210: 7211 07bc 846a 34bd a17c 2ebd d5ec 6c3d
00000220: 7cd2 913c d059 4f3d e596 a7bd 1af8 80bd
00000230: 50eb 11bd 54ab 353b 34d7 98bd a812 3ebd
00000240: e3e2 ccbc 3e6f 263d dca5 96bd cd58 7d3d
00000250: ddf1 433d 492b a3bd ddaa 55bc 7d46 753d
00000260: 01bb a1bd 7f7b cabc 9e98 37bc ac71 94bd
00000270: 2210 483d db33 3bbd d2bb f4bc 6bcd 1e3d
00000280: 11f5 f83d 4976 043c 3d9b fa3d 742e 8c3d
00000290: 3d09 603c ca1a 083c 73d5 40bc b798 a1bd
000002a0: 9f11 c5bd 49ac 82bd 2be9 b7b9 7b97 0ebd
000002b0: a526 43bc f3fe 94bd a402 b1bd 586a 893d
000002c0: 0d6e b63d 8517 01bc b236 ac3d a20b 83bd
000002d0: df61 803d 8e42 313c bdb2 4b3c c7cf 24bc
000002e0: 2cb5 87bd 250d 343e 160f a23c cca1 0b3e
000002f0: c682 013e 32e7 113e 8f00 cbbc e8aa 04bc
00000300: 1fd1 e9bd 7896 e6bd 9b1d 59bc ddd1 533d
00000310: fcb8 893c dfeb 7fbd 012f 89bd 8a02 2abd
00000320: 6f8b 70bd e69f e93c d571 c6bd 1572 99bd
00000330: fb19 04bd ee5a 933b 0950 a3bd 37cd 743c
00000340: 7ad9 c93d 7b39 17bd 1042 f13b 88ff 81bd
00000350: faca 953c deeb fcbb 5cce 1e3d 1dcf 5a3d
00000360: ec1f c23d 52fb ee3d 65dd ebbb cfec 53bd
00000370: cf3e c13c 795c 52bd 48ed f93c 53b0 df3d
00000380: c8b0 b6bb 2f0b 773d cdac 2abd 1b4e 423d
00000390: 8c01 e03c 9bc8 c23d e2e3 21bd 45a8 b53d
000003a0: 7299 14bd 8c8c e03d 90c1 2bbd 31ce a33c
000003b0: d79d 973d b8a8 49bb 6bca b3bd 9f80 c0bd
000003c0: fc5a dc3d 91a9 ce3d 9d4f 513e d98c 593c
000003d0: fec7 4e3e bb06 ca3c 753b 443d efa0 163c
000003e0: 7394 883d d3f2 e93c 03f7 1b3d 9d28 ccbd
000003f0: 4c33 2d3d e8ad 893e e194 15bf 28fd 163e

encoder.2.bias f4 [64]
0.061834134 -0.068272054 0.037972074 0.047332406 -0.04991617 -0.044881653 -0.033685986 0.19297247
0.10328342 0.012952693 0.06345439 -0.044661604 0.048855778 -0.08558327 -0.07045387 0.00486617
-0.12629727 0.04607713 -0.032597695 -0.0355173 0.113902286 0.05997592 0.13822904 -0.009733349
0.10377893 -0.013131928 0.11949033 0.0070683216 -0.078630835 -0.14316629 -0.035249975 0.065685615
0.093586 -0.02152468 -0.03064146 -0.1003518 -0.08857415 0.06982569 0.080545284 0.061260235
-0.03628785 0.047222607 -0.02081934 0.008346789 0.01686266 -0.15157063 -0.09081796 0.060805768
0.20461519 -0.07990098 0.09783839 0.14963086 0.015317806 -0.0034554887 0.059823073 -0.021418907
0.066186115 -0.012958291 -0.061922643 -0.027025163 -0.0051543135 0.10627149 -0.053562295 0.020661023
00000000: ca45 7d3d 38d2 8bbd 9b88 1b3d a0df 413d
00000010: e674 4cbd d3d5 37bd 51fa 09bd 939a 453e
00000020: 4286 d33d 8837 543c 60f4 813d 16ef 36bd
00000030: ff1c 483d 4846 afbd 1e4a 90bd 6574 9f3b
00000040: 1254 01be 5fbb 3c3d 2985 05bd 977a 11bd
00000050: 9a45 e93d 4fa9 753d ea8b 0d3e a078 1fbc
00000060: 0c8a d43d 4c27 57bc 59b7 f43d 619d e73b
00000070: 3409 a1bd 2f9a 12be 4762 10bd 2e86 863d
00000080: 04aa bf3d 8754 b0bc cd03 fbbc 3f85 cdbd
00000090: 5d66 b5bd c500 8f3d edf4 a43d 03ec 7a3d
000000a0: 92a2 14bd 7e6c 413d 528d aabc f8c0 083c
000000b0: 9023 8a3c 5535 1bbe c4fe b9bd 780f 793d
000000c0: a586 513e 20a3 a3bd 7e5f c83d d538 193e
000000d0: 89f7 7a3c 7b75 62bb 0a09 753d b476 afbc
000000e0: 968c 873d 034f 54bc 99a2 7dbd e063 ddbc
000000f0: 84e5 a8bb dea4 d93d 2364 5bbd 4e41 a93c

encoder.4.weight f4 [128, 64, 3]
-0.0038279723 -0.0209216 0.06534697 -0.0048535364 0.04980748 0.05908981 -0.08955298 0.019614866
-0.02373038 0.05790781 0.041582394 0.046052285 -0.038999263 -0.04900737 0.013116975 -0.013468713
0.18960178 -0.094673164 0.06998506 0.12306956 0.051785957 0.01811943 0.051073544 -0.13605617
0.018986806 0.023794418 0.036451604 -0.07069765 -0.02978308 -0.053970106 0.19475223 -0.025509335
0.0011187998 -0.052554455 0.05349096 0.011747293 -0.14788991 0.18013583 0.033200182 0.063042864
0.035371 -0.014752309 -0.054987423 -0.03455998 -0.009594433 0.13374974 0.008701088 0.13162915
0.05139655 -0.008958484 0.0240857 0.031755246 -0.032765213 0.046945848 -0.03909886 -0.016237484
-0.023432883 0.05740212 0.08875547 -0.11388573 0.069987416 0.070867226 -0.05794301 0.21211472
-0.027837476 0.10735441 0.0064341226 -0.07992179 -0.13870524 0.0038677377 0.028203964 0.008170031
-0.08655685 -0.017658884 -0.078941464 -0.0944655 0.06878904 0.09312245 -0.0050314856 -0.040428013
0.07690111 -0.02953102 0.04480717 -0.011748167 0.048332956 0.014031206 -0.018972475 0.02717741
-0.027914476 -0.12693264 -0.041414622 0.024803095 -0.06655835 -0.11705779 -0.056975175 -0.027859397
0.077609144 0.0952382 0.17581907 0.067803696 -0.06950117 -0.07395729 0.098628595 -0.10455031
0.030125314 -0.045363188 0.03025615 -0.0051837354 0.051681723 0.0021352523 0.05679486 -0.069846354
-0.08106301 -0.032619987 0.069329664 0.033770714 0.103276156 0.027444571 0.06517909 -0.01812907
-0.014522526 -0.04331778 0.018668478 -0.0040419404 0.040806778 -0.23568872 -0.10814785 -0.031851437
-0.0034735291 0.102875054 -0.16402355 0.3919902 0.07997178 0.023595793 0.04283105 0.0064159147
-0.0155566335 0.02838905 0.028820738 -0.014523335 0.03683047 0.093763106 0.052755274 -0.056843523
-0.16602987 -0.10667626 0.19729362 0.055827137 0.028989648 0.12332722 0.05577822 0.044045933
0.011816802 0.035833646 -0.21554518 -0.036455773 -0.027517522 0.023823319 -0.03584833 -0.012277597
-0.01172409 0.03389816 -0.067903236 0.15781556 0.0692141 0.03942833 -0.02947414 -0.023354502
-0.047978878 -0.027702924 -0.009115146 -0.011583174 0.00653297 0.032788955 0.017786445 -0.07047024
-0.020769235 -0.03569109 0.063130945 0.05499338 0.22066197 0.071894445 0.11288965 0.02015065
0.006889592 -0.09058183 -0.023193162 -0.03140918 0.040629204 0.051781867 0.020304319 0.06143643
-0.029011276 -0.022324458 -0.0015914214 0.013573595 0.105669685 -0.014487171 -0.12585032 0.079898566
-0.058986288 -0.04706468 0.063939534 -0.07551533 0.027169146 0.072324194 -0.049494334 0.37769556
-0.4250336 0.023217296 -0.0039243842 -0.030975156 -0.040969044 -0.09312763 0.1455533 -0.10073135
0.033940595 0.009491465 -0.27520123 0.037910167 0.0073279417 0.006371822 -0.0694656 -0.0064264075
0.13204598 -0.073274486 0.045205392 -0.03938795 0.006615491 0.2599669 -0.013795198 -0.034881745
0.009743044 0.069000885 -0.010105615 -0.08816147 -0.0081647895 0.06879766 0.073377036 0.18694507
0.016524909 -0.027976533 0.032690227 0.01397979 -0.040866055 -0.053954747 -0.04711309 0.046263274
0.019798951 0.048306227 -0.16387409 0.11408925 -0.0996571 -0.011840237 0.21526365 0.061031613
00000000: b8de 7abb c663 abbc a2d4 853d 6a0a 9fbb
00000010: ee02 4c3d 2808 723d 8e67 b7bd 5baf a03c
00000020: 3766 c2bc bd30 6d3d 4d52 2a3d 52a1 3c3d
00000030: b1bd 1fbd f4bb 48bd 95e8 563c e0ab 5cbc
00000040: f826 423e 01e4 c1bd 5454 8f3d e50b fc3d
00000050: 831d 543d 336f 943c 7e32 513d 4f52 0bbe
00000060: 388a 9b3c 83ec c23c 474e 153d eec9 90bd
00000070: a5fb f3bc c20f 5dbd 216d 473e f4f8 d0bc
00000080: b1a4 923a 5743 57bd 5619 5b3d b877 403c
00000090: 7470 17be 8775 383e eafc 073d 9e1c 813d
000000a0: 2fe1 103d abb3 71bc 7e3a 61bd c48e 0dbd
000000b0: f831 1dbc b1f5 083e 028f 0e3c cbc9 063e
000000c0: 3085 523d 9bc6 12bc 604f c53c ca11 023d
000000d0: d134 06bd 4a4a 403d 2026 20bd 7904 85bc
000000e0: 51f6 bfbc 7c1e 6b3d 6ec5 b53d ec3c e9bd
000000f0: 9055 8f3d d622 913d a655 6dbd 9a34 593e
00000100: 6b0b e4bc a1dc db3d 55d5 d23b 09ae a3bd
00000110: bf08 0ebe df79 7d3b 000c e73c 98db 053c
00000120: b844 b1bd 5da9 90bc 10ac a1bd 2177 c1bd
00000130: 45e1 8c3d fcb6 be3d 29df a4bb d897 25bd
00000140: 547e 9d3d 0aeb f1bc b987 373d 627b 40bc
00000150: c7f8 453d 25e3 653c 2a6c 9bbc 29a3 de3c
00000160: e6ac e4bc a1fa 01be 61a2 29bd dc2f cb3c
00000170: bf4f 88bd ffbb efbd cd5e 69bd 6439 e4bc
00000180: 8bf1 9e3d 3f0c c33d ea09 343e aadc 8a3d
00000190: a156 8ebd eb76 97bd cafd c93d 791e d6bd
000001a0: 5dc9 f63c c0ce 39bd bfdb f73c 53dc a9bb
000001b0: 37b0 533d 97ef 0b3b baa1 683d 9b0b 8fbd
000001c0: 5d04 a6bd 899c 05bd b6fc 8d3d 2953 0a3d
000001d0: 7382 d33d 70d3 e03c 9d7c 853d 6a83 94bc
000001e0: e4ef 6dbc fc6d 31bd a3ee 983c 4172 84bb
000001f0: 0225 273d 6258 71be 9f7c ddbd a776 02bd
00000200: 26a4 63bb 28b0 d23d caf5 27be f1b2 c83e
00000210: 3fc8 a33d f74b c13c 9c6f 2f3d 983c d23b
00000220: 40e1 7ebc 2790 e83c 7819 ec3c 48f3 6dbc
00000230: 8cdb 163d df06 c03d ea15 583d c1d4 68bd
00000240: bc03 2abe 1579 dabd 5707 4a3e ffaa 643d
00000250: b37b ed3c fb92 fc3d b477 643d 8269 343d
00000260: 439b 413c 4dc6 123d e0b7 5cbe a652 15bd
00000270: 6d6c e1bc 1f29 c33c b3d5 12bd f927 49bc
00000280: 6616 40bc ccd8 0a3d da10 8bbd 679a 213e
00000290: 1fc0 8d3d 9a7f 213d c073 f1bc f151 bfbc
000002a0: 8085 44bd 3ef1 e2bc b157 15bc 5ac7 3dbc
000002b0: 8612 d63b b64d 063d e1b4 913c b452 90bd
000002c0: 3e24 aabc d230 12bd cc4a 813d bd40 613d
000002d0: 36f5 613e 653d 933d b032 e73d fa12 a53c
000002e0: 16c2 e13b f782 b9bd 96ff bdbc eaa6 00bd
000002f0: cf6a 263d 3919 543d 3e55 a63c c4a4 7b3d
00000300: 0ea9 edbc c8e1 b6bc 3e97 d0ba c963 5e3c
00000310: 5969 d83d 995b 6dbc e8de 00be dca1 a33d
00000320: 9b9b 71bd e5c6 40bd bbf2 823d c8a7 9abd
00000330: d491 de3c b51e 943d 92ba 4abd 5061 c13e
00000340: 019e d9be 3332 be3c 1f98 80bb 9cbf fdbc
00000350: 28cf 27bd b3b9 bebd ed0b 153e 3d4c cebd
00000360: 4b05 0b3d 1782 1b3c 2de7 8cbe b147 1b3d
00000370: 3b1f f03b b8ca d03b fb43 8ebd 9d94 d2bb
00000380: 1037 073e ef10 96bd 4a29 393d 4255 21bd
00000390: c3c6 d83b 621a 853e 4105 62bc 29e0 0ebd
000003a0: 4aa1 1f3c 5650 8d3d 0592 25bc 008e b4bd
000003b0: 9cc5 05bc cae5 8c3d b346 963d 876e 3f3e
000003c0: 3f5f 873c 0b2f e5bc 30e6 053d 7d0b 653c
000003d0: 2a63 27bd a7ff 5cbd a8f9 40bd 8f7e 3d3d
000003e0: 6931 a23c c0dc 453d 9cce 27be a0a7 e93d
000003f0: 0619 ccbd 8efd 41bc 136e 5c3e 49fc 793d

encoder.4.bias f4 [128]
0.035932038 -0.05927409 0.05669139 -0.03459199 -0.0118882675 0.077415146 0.0627664 0.04487428
-0.03412196 -0.02342712 0.009826972 0.021495461 -0.07614544 0.04972275 0.011615173 0.010883604
0.050405093 0.023946812 -0.09924553 -0.018011201 -0.012207844 -0.08380278 -0.10146166 -0.0070649595
-0.030264143 -0.003943042 -0.12071093 0.056099243 -0.030713093 0.007781617 0.037077688 -0.022214266
0.063684784 -0.031080496 0.044535585 -0.064833105 0.009806535 -0.012088208 -0.07683279 -0.00067820353
-0.008488599 -0.0349771 -0.009012804 -0.004412832 0.021717614 0.052167498 -0.09125251 0.04503136
0.09402161 -0.04895838 0.0340106 -0.017158115 0.06759042 -0.1578885 0.061940227 -0.006522861
-0.027888663 0.027355196 0.0030010666 0.014539504 -0.095095485 0.033476166 -0.0049539977 -0.022124477
-0.11748706 -0.00033117385 -0.06279327 0.06044404 0.02610904 -0.024800232 -0.027107755 -0.016116954
0.23631503 0.04268274 -0.026854658 0.06268745 -0.037910637 -0.012813866 -0.016476784 -0.06051406
0.051794063 -0.047838103 0.028233392 -0.017818017 -0.09448434 0.029511046 -0.052627653 0.051222514
-0.03138597 -0.039560277 -0.018338656 -0.06757728 -0.021206986 -0.022792958 -0.052652806 -0.03418216
-0.062371034 -0.07369014 0.012853511 0.06750851 -0.07429364 -0.047815114 -0.07523496 -0.053938236
0.021875335 0.06409453 -0.042739287 -0.065399535 -0.091724746 -0.038405254 -0.064255364 -0.09191348
-0.036295917 0.0418515 -0.038955595 0.059802383 0.026765462 0.011652052 -0.024176287 -0.009831503
0.008578895 0.053523835 0.030648964 -0.07262928 -0.06595571 -0.036141027 0.016918069 0.033390418
00000000: 792d 133d 63c9 72bd 3b35 683d 55b0 0dbd
00000010: 02c7 42bc d58b 9e3d ac8b 803d 18ce 373d
00000020: 78c3 0bbd 3bea bfbc 4f01 213c 4017 b03c
00000030: 24f2 9bbd 15aa 4b3d 914d 3e3c 2551 323c
00000040: 9275 4e3d 1b2c c43c 3e41 cbbd 3a8c 93bc
00000050: 6903 48bc cba0 abbd 21cb cfbd 2d81 e7bb
00000060: 82ec f7bc a234 81bb 4b37 f7bd 52c8 653d
00000070: 069a fbbc effc fe3b c6de 173d b1fa b5bc
00000080: 2b6d 823d 869c febc f26a 363d 38c7 84bd
00000090: 97ab 203c 9f0d 46bc 835a 9dbd 78c9 31ba
000000a0: c413 0bbc 2644 0fbd 71aa 13bc 8599 90bb
000000b0: 23e9 b13c 96ad 553d 99e2 babd ce72 383d
000000c0: 678e c03d 9588 48bd b34e 0b3d 2d8f 8cbc
000000d0: d96c 8a3d 86ad 21be 09b5 7d3d b9bd d5bb
000000e0: c476 e4bc 0118 e03c 8bad 443b 1a37 6e3c
000000f0: 6cc1 c2bd 4e1e 093d 2555 a2bb 643e b5bc
00000100: 0e9d f0bd 67a1 adb9 c299 80bd 2b94 773d
00000110: a0e2 d53c db29 cbbc 1511 debc b407 84bc
00000120: 91fc 713e 19d4 2e3d 4dfe dbbc 4762 803d
00000130: 2f48 1bbd 40f1 51bc 52fa 86bc 97dd 77bd
00000140: 0326 543d e3f1 43bd b749 e73c 17f7 91bc
00000150: 0181 c1bd 26c1 f13c 1890 57bd b3ce 513d
00000160: 938e 00bd f509 22bd f33a 96bc f565 8abd
00000170: 46ba adbc 4cb8 babc 78aa 57bd 9802 0cbd
00000180: c578 7fbd dbea 96bd 8897 523c e741 8a3d
00000190: 4427 98bd c8d9 43bd c914 9abd 57ee 5cbd
000001a0: e733 b33c fe43 833d 640f 2fbd 31f0 85bd
000001b0: 2fda bbbd d44e 1dbd 5198 83bd 223d bcbd
000001c0: 07ab 14bd 7a6c 2b3d e78f 1fbd 58f3 743d
000001d0: 3e43 db3c 40e8 3e3c 590d c6bc 5014 21bc
000001e0: 7e8e 0c3c cf3b 5b3d 8913 fb3c a9be 94bd
000001f0: ca13 87bd 9d08 14bd c397 8a3c 64c4 083d

decoder.0.weight f4 [128, 64, 3]
-0.04750399 -0.05091927 0.02079256 -0.04964694 -0.03128184 0.037218366 -0.14726037 -0.00439451
-0.09735344 -0.07100455 0.019287502 -0.034182232 0.05266067 -0.051903103 0.0025137488 0.09071293
-0.13727564 -0.063053995 0.042033747 0.079146914 -0.033420917 -0.025031963 0.012911697 -0.020481523
0.12789369 -0.03012384 -0.04009732 0.05180053 0.084733255 -0.1044203 0.08550209 0.031131437
-0.024644556 0.010083882 -0.03178356 0.038811658 -0.0120908 -0.010605554 0.020714968 -0.039018843
0.10576932 0.12461621 -0.028316231 0.06640752 0.007510972 -0.017321186 -0.058362294 -0.020723753
0.016723556 -0.095279925 -0.13407533 -0.0043334053 0.016508562 -0.017507311 0.059143852 -0.058448616
0.05392608 -0.07235649 0.003752851 0.09854028 0.035506833 0.046429534 0.03309938 -0.113794
-0.014173778 0.022576695 -0.06799375 0.03254862 0.06841423 -0.017419241 -0.042899605 0.041792262
-0.051107056 -0.028258268 0.042637423 0.06646651 -0.008668085 -0.028146762 0.021911092 -0.0013749917
-0.0115321195 0.057968106 -0.071582764 0.0020750966 0.023027157 -0.056462992 -0.001831403 -0.07071609
0.025586903 0.039522123 0.023661328 0.030154116 -0.06259998 -0.05739332 -0.29286256 -0.03470192
-0.01399065 0.11541555 -0.09707886 0.0107579995 0.034806993 0.019523265 0.0365929 0.04285867
0.034538295 0.035997313 -0.011237642 -0.07331163 0.012741683 0.065290146 0.03809824 0.03159853
-0.075145505 0.11104272 0.09480184 -0.06994664 0.073636815 -0.07464081 0.010488309 -0.01576417
0.054023024 0.0058348323 -0.008201817 0.01243323 0.009458585 -0.012489291 -0.06202783 0.014322914
-0.04862454 -0.043035883 -0.08666401 -0.06978377 -0.057216346 -0.034166574 -0.021728804 -0.008076505
0.0013220378 -0.01704688 -0.041678343 0.11688587 -0.07331866 0.0065594064 0.05066645 -0.044244785
-0.088926494 0.027318325 0.016667157 -0.012943249 -0.1161757 0.18285385 0.0067760455 0.011493602
-0.0361176 -0.034003276 -0.15400617 -0.0107618105 -0.078962535 -0.06884091 -0.06276588 -0.09824324
0.0068469387 0.020519836 0.056147862 0.0031094137 0.039616562 -0.049235005 0.055067915 0.060921192
0.123412296 -0.030542912 -0.070006214 0.059891917 -0.0005886273 -0.07491821 -0.010905633 0.061766736
0.0075888783 -0.050798967 0.066568255 -0.0086113755 -0.033107564 -0.0033406427 0.07200831 -0.008796348
-0.01967632 0.045570083 -0.10746305 -0.060514446 0.07858177 -0.026726454 0.019952629 0.02830069
0.02144245 0.026884357 -0.021608194 0.049368497 -0.038161643 0.033347555 -0.018359032 0.022242658
0.059075855 -0.044926308 -0.057228144 -0.045953188 0.010749599 0.029801046 -0.058434714 0.05465471
-0.026632158 0.036849797 -0.012814365 0.019014277 0.12387517 -0.06866043 -0.05225543 -0.062049158
-0.005436453 0.10944312 0.02132843 0.1263684 0.012439395 -0.04016483 -0.15090178 0.08655235
-0.36463878 -0.07492137 -0.06528898 0.02876241 -0.07408499 -0.07706204 -0.0046680407 -0.012733337
-0.10678718 0.01915441 0.018612327 0.057361614 0.04756854 0.09220127 0.17426604 0.082466744
-0.075149156 -0.0436157 0.0018320451 -0.035653166 -0.0073577 0.0024870958 0.019788861 0.060806118
0.015064387 0.063958265 0.012403054 -0.007708947 -0.09047246 -0.086453676 0.08991217 -0.14390936
00000000: 8b93 42bd b990 50bd 2955 aa3c 975a 4bbd
00000010: 6321 00bd 4972 183d 6ccb 16be d2ff 8fbb
00000020: 3e61 c7bd d56a 91bd d300 9e3c ab02 0cbd
00000030: b7b2 573d 5998 54bd b5bd 243b b3c7 b93d
00000040: fc91 0cbe 7422 81bd 942b 2c3d c717 a23d
00000050: 5fe4 08bd d50f cdbc 958b 533c dec8 a7bc
00000060: 90f6 023e 45c6 f6bc 163d 24bd cb2c 543d
00000070: a188 ad3d 4fda d5bd b81b af3d 5b07 ff3c
00000080: 61e3 c9bc de36 253c 7a2f 02bd f9f8 1e3d
00000090: 7e18 46bc ebc2 2dbc 70b2 a93c 39d2 1fbd
000000a0: 969d d83d c936 ff3d 71f7 e7bc aa00 883d
000000b0: 9a1e f63b 29e5 8dbc 4d0d 6fbd dcc4 a9bc
000000c0: d7ff 883c 1f22 c3bd 0b4b 09be 3dff 8dbb
000000d0: f73c 873c 7e6b 8fbc d340 723d d167 6fbd
000000e0: 98e1 5c3d a42f 94bd 64f2 753b 7ccf c93d
000000f0: 9d6f 113d e52c 3e3d 3793 073d d40c e9bd
00000100: 2239 68bc c3f2 b83c 4f40 8bbd b451 053d
00000110: c31c 8c3d ccb2 8ebc 7fb7 2fbd 5d2e 2b3d
00000120: a255 51bd e27d e7bc 94a4 2e3d 981f 883d
00000130: 9504 0ebc 0a94 e6bc e47e b33c 1139 b4ba
00000140: 37f1 3cbc f76f 6d3d fc99 92bd 58fe 073b
00000150: 73a3 bc3c bd45 67bd b00b f0ba 99d3 90bd
00000160: a09b d13c f3e1 213d 67d5 c13c c405 f73c
00000170: 6b34 80bd 4215 6bbd 15f2 95be 9a23 0ebd
00000180: 0a39 65bc fd5e ec3d 48d1 c6bd 5242 303c
00000190: c791 0e3d 41ef 9f3c 70e2 153d 938c 2f3d
000001a0: 0778 0d3d eb71 133d 161e 38bc 6824 96bd
000001b0: 7ec2 503c d7b6 853d e60c 1c3d 766d 013d
000001c0: e3e5 99bd 5e6a e33d 7827 c23d 2f40 8fbd
000001d0: e6ce 963d 48dd 98bd 28d7 2b3c dc23 81bc
000001e0: 3f47 5d3d 1f32 bf3b ea60 06bc bfb4 4b3c
000001f0: 2ef8 1a3c e29f 4cbc e510 7ebd a8aa 6a3c
00000200: 872a 47bd 6546 30bd e77c b1bd cbea 8ebd
00000210: b05b 6abd 40f2 0bbd 9b00 b2bc 5153 04bc
00000220: 3a48 ad3a e6a5 8bbc e9b6 2abd dc61 ef3d
00000230: 1828 96bd 4af0 d63b a087 4f3d 053a 35bd
00000240: 181f b6bd aeca df3c 9089 883c ec0f 54bc
00000250: 87ed edbd 0a3e 3b3e 9709 de3b a94f 3c3c
00000260: 0cf0 13bd 0547 0bbd cbb3 1dbe 4e52 30bc
00000270: 1cb7 a1bd 77fc 8cbd 668b 80bd c033 c9bd
00000280: 495c e03b 3719 a83c 4dfb 653d 4ec7 4b3b
00000290: fa44 223d a5aa 49bd e58e 613d 8088 793d
000002a0: 96bf fc3d 2135 fabc 6b5f 8fbd 3a51 753d
000002b0: 1c4e 1aba b86e 99bd 8aad 32bc 1eff 7c3d
000002c0: 20ac f83b 9412 50bd f054 883d ba16 0dbc
000002d0: cc9b 07bd afee 5abb 1879 933d 8f1e 10bc
000002e0: 3c30 a1bc b2a7 3a3d 9615 dcbd ffdd 77bd
000002f0: 7bef a03d 70f1 dabc b273 a33c d9d6 e73c
00000300: 14a8 af3c 953c dc3c ab03 b1bc 9f36 4a3d
00000310: 624f 1cbd 7297 083d ae65 96bc 3c36 b63c
00000320: 86f9 713d a604 38bd 0f68 6abd 6939 3cbd
00000330: 161f 303c 5321 f43c 3d59 6fbd 9edd 5f3d
00000340: af2b dabc d0ef 163d 58f3 51bc d4c3 9b3c
00000350: 44b2 fd3d d79d 8cbd ca09 56bd 4227 7ebd
00000360: 4624 b2bb b723 e03d f6b8 ae3c b866 013e
00000370: 9bce 4b3c e083 24bd ff85 1abe 5c42 b13d
00000380: efb1 babe 6070 99bd 3bb6 85bd 259f eb3c
00000390: dfb9 97bd b4d2 9dbd 5df6 98bb 7c9f 50bc
000003a0: 3db3 dabd b6e9 9c3c e178 983c 03f4 6a3d
000003b0: 3bd7 423d 05d4 bc3d cc72 323e 53e4 a83d
000003c0: cde7 99bd 60a6 32bd 3c21 f03a 0e09 12bd
000003d0: dc18 f1bb 8bfe 223b 401c a23c d60f 793d
000003e0: 9ed0 763c 8dfc 823d 2e36 4b3c 569b fcbb
000003f0: a049 b9bd a00e b1bd df23 b83d fa5c 13be

decoder.0.bias f4 [64]
-0.052202184 -0.021061294 0.053385027 -0.049034495 -0.076105095 -0.09615199 -0.050217457 0.0005921623
0.011513212 0.019742489 0.017292084 -0.09129399 -0.07294428 -0.0683054 -0.020741234 0.014953229
-0.004650237 0.059395216 -0.09212272 0.009270858 0.049673337 -0.021883437 0.06314846 0.027117321
-0.07095605 0.011007199 0.01791006 -0.033584446 0.05503712 -0.073256865 -0.0015171666 -0.03083528
0.008438256 -0.0518055 -0.04892008 -0.06483153 -0.0134309195 0.07678466 0.076751776 0.04881073
-0.041493166 0.032696128 0.03638991 -0.030233564 0.043152235 -0.10316499 0.09660191 -0.058980316
0.083060004 0.025014043 0.00097149407 0.032209575 -0.01786744 -0.04388404 -0.002117791 0.0034972746
0.08401063 0.0483784 0.024777442 0.033367254 0.029279668 -0.031139923 -0.05241727 -0.052172218
00000000: f5d1 55bd bc88 acbc 42aa 5a3d 65d8 48bd
00000010: fddc 9bbd 56eb c4bd d2b0 4dbd 573b 1b3a
00000020: e9a1 3c3c 00bb a13c 21a8 8d3c 58f8 babd
00000030: d063 95bd b4e3 8bbd 85e9 a9bc 63fe 743c
00000040: 0461 98bb 6648 733d d6aa bcbd cce4 173c
00000050: 4576 4b3d e544 b3bc fb53 813d 2525 de3c
00000060: 6851 91bd 8a57 343c 1eb8 923c d88f 09bd
00000070: 9a6e 613d b207 96bd aadb c6ba 459a fcbc
00000080: 9c40 0a3c 0132 54bd 6c60 48bd 65c6 84bd
00000090: 5c0d 5cbc 4741 9d3d 0930 9d3d c3ed 473d
000000a0: bdf4 29bd 60ec 053d 960d 153d 61ac f7bc
000000b0: 66c0 303d 2b48 d3bd 39d7 c53d 5895 71bd
000000c0: 5d1b aa3d 40ea cc3c ddab 7e3a 30ee 033d
000000d0: bd5e 92bc c0bf 33bd a3ca 0abb 8832 653b
000000e0: c40d ac3d 6e28 463d 10fa ca3c 1aac 083d
000000f0: eadb ef3c 2719 ffbc 7eb3 56bd 89b2 55bd

decoder.2.weight f4 [64, 32, 5]
-0.035119537 0.058526937 0.07315637 0.018615624 -0.02408324 0.11566783 0.017408162 -0.070848756
0.029374903 0.15727092 0.48902825 -0.057583846 0.020691015 0.05219999 -0.1198397 0.07069063
0.11760077 0.10599728 -0.02012736 0.058514033 -0.058042917 -0.17676707 -0.034237117 0.1434659
0.32988006 0.017935542 0.060618557 0.046669424 0.05767157 0.044755906 0.019993393 -0.029508272
0.08490464 -0.057607014 0.0645117 -0.56611717 -0.08222815 -0.07613806 -0.009019539 -0.10421179
0.047751285 0.05725509 -0.17034204 -0.075156465 0.004140417 0.039088137 0.058312945 -0.027305726
-0.086447455 -0.0019524404 -0.022298845 0.006625672 -0.08034222 -0.059351962 0.039319523 0.060644068
0.012789823 0.18293196 0.057843518 -0.15161327 0.010387391 0.0051727365 0.02106604 -0.006393399
-0.0032775132 -0.032644954 -0.040343203 -0.122350074 0.031167362 0.017214226 -0.03126904 0.00087690627
-0.005850823 0.01651739 -0.007911623 -0.059375074 0.066848606 0.024287114 -0.13924143 -0.15855613
-0.019669194 -0.031209314 0.010968146 -0.06957483 -0.026804255 0.030732164 0.077036016 -0.098659106
-0.11805261 -0.046111785 0.054009847 0.11141959 0.2407527 0.18627961 0.12428996 -0.023847662
2.3921432 0.0016646895 0.2001113 -0.045434356 -0.011407034 0.28545663 -0.07668279 0.013886178
0.017420886 0.09394 0.14055492 0.037692804 0.055688288 -0.04305749 0.007935373 -0.08421098
0.03730405 0.091778204 0.026785364 0.06655704 0.03929124 0.026532616 -0.042076617 0.002203574
-0.006443767 -0.011187878 0.057470545 0.07223979 -0.05590723 0.07900424 0.18784223 0.003721947
0.04816516 -0.011143186 -0.04143091 -0.11742264 0.0026014708 0.092181824 0.064066954 -0.047279105
0.10879244 0.01709796 0.0009520321 0.034644507 0.09558194 -0.037612986 -0.011135019 0.057417866
-0.033301055 6.0425505e-06 0.0058830893 0.06506026 0.30825028 0.18838589 0.012568535 0.08212859
0.0006216884 0.022507621 -0.07490768 -0.048655294 0.03359091 -0.046704125 -0.052830514 -0.020579109
-0.006658882 0.0138808405 0.06332253 0.02815028 -0.02844908 0.05387444 -0.01277645 0.50829446
0.1036084 -0.09763005 0.22586024 0.34299776 -0.09616855 -0.06597583 -0.06295848 -0.00922348
-0.059196334 -0.06873883 0.020066112 -0.010890039 0.0031121236 0.06038424 -0.019328183 0.017052013
-0.10387355 -0.11566089 0.0290446 -0.1239487 0.06224829 -0.008112616 -0.031846683 -0.08891606
0.055519138 -0.07069155 0.05598153 -0.13719042 0.014545355 -0.005257183 -0.009621784 -0.1414867
0.08935825 0.0974535 0.0005065956 -0.024265701 0.0068835462 -0.024656009 0.01563908 -0.060647875
0.0042560757 -0.0006629946 0.044888835 0.040911082 0.0062652607 -0.09913965 -0.05933655 -0.0024435834
-0.056110926 0.2993982 -0.044176456 0.16453652 -0.03798045 0.034282237 0.03412891 0.024853198
0.07721818 0.0802914 -0.087485835 -0.02265271 -0.108761206 -0.033948343 -0.0750179 0.097070806
0.024249418 0.056164972 -0.052246787 0.044230886 0.0008595075 -0.04560783 -0.07301407 0.02222687
-0.015104423 -0.045139126 0.031530388 -0.08373839 0.017624065 0.064394474 0.08624589 0.0038377128
0.04930354 0.053631093 0.116564624 -0.09808555 0.017149603 0.098454006 0.12720141 0.053773616
00000000: 81d9 0fbd f1b9 6f3d 02d3 953d cb7f 983c
00000010: 374a c5bc 41e3 ec3d 909b 8e3c 2719 91bd
00000020: a3a3 f03c a10b 213e e961 fa3e 0add 6bbd
00000030: 3480 a93c a8cf 553d 846e f5bd 40c6 903d
00000040: acd8 f03d 1a15 d93d 22e2 a4bc 69ac 6f3d
00000050: 69be 6dbd 6d02 35be 383c 0cbd bae8 123e
00000060: 0ae6 a83e 8fed 923c 2a4b 783d 7028 3f3d
00000070: 0639 6c3d f851 373d 2fc9 a33c 55bb f1bc
00000080: 7ce2 ad3d 55f5 6bbd b61e 843d 0eed 10bf
00000090: 3b67 a8bd 45ee 9bbd b0c6 13bc fe6c d5bd
000000a0: da96 433d 5084 6a3d 256e 2ebe a2eb 99bd
000000b0: 56ac 873b e21a 203d 8ed9 6e3d 42b0 dfbc
000000c0: 5d0b b1bd 07e9 ffba 11ac b6bc 2a1c d93b
000000d0: 768a a4bd 0b1b 73bd 820d 213d ea65 783d
000000e0: 688c 513c 8452 3b3e 53ed 6c3d 8240 1bbe
000000f0: e02f 2a3c 0f80 a93b b092 ac3c b87f d1bb
00000100: 8ccb 56bb b7b6 05bd ea3e 25bd ad92 fabd
00000110: b252 ff3c d904 8d3c f713 00bd 2fe0 653a
00000120: 43b8 bfbb 7a4f 873c c19f 01bc 4733 73bd
00000130: ece7 883d c5f5 c63c 4e95 0ebe 8a5c 22be
00000140: 4a21 a1bc adaa ffbc bdb3 333c 407d 8ebd
00000150: 9994 dbbc 05c2 fb3c 0fc5 9d3d c90d cabd
00000160: 91c5 f1bd b6df 3cbd 6e39 5d3d f42f e43d
00000170: e087 763e 15c0 3e3e bc8b fe3d 2c5c c3bc
00000180: e018 1940 b631 da3a fae9 4c3e 6019 3abd
00000190: 91e4 3abc 5f27 923e de0b 9dbd da82 633c
000001a0: 3fb6 8e3c 9d63 c03d a1ed 0f3e c563 1a3d
000001b0: 6719 643d 0d5d 30bd 5e03 023c ce76 acbd
000001c0: 22cc 183d 36f6 bb3d fb6c db3c 0f4f 883d
000001d0: daef 203d ee5a d93c 8858 2cbd d669 103b
000001e0: 3c26 d3bb 5d4d 37bc 3c66 6b3d 74f2 933d
000001f0: fbfe 64bd facc a13d b759 403e e9eb 733b
00000200: d548 453d e991 36bc 75b3 29bd 487b f0bd
00000210: 707d 2a3b d3c9 bc3d 8935 833d bca7 41bd
00000220: 92ce de3d 0511 8c3c cb91 793a 66e7 0d3d
00000230: 77c0 c33d 1310 1abd a86f 36bc ff2e 6b3d
00000240: b066 08bd 1dc1 ca36 eec6 c03b 503e 853d
00000250: fbd2 9d3e 3be8 403e 42ec 4d3c 0933 a83d
00000260: cdf8 223a e761 b83c 3369 99bd c64a 47bd
00000270: 9f96 093d d34c 3fbd cf64 58bd 8595 a8bc
00000280: c032 dabb 776c 633c 3eaf 813d 6a9b e63c
00000290: 0c0e e9bc 72ab 5c3d 5154 51bc 961f 023f
000002a0: a430 d43d 43f2 c7bd e847 673e 679d af3e
000002b0: 04f4 c4bd 561e 87bd 60f0 80bd 141e 17bc
000002c0: db77 72bd f2c6 8cbd b061 a43c 226c 32bc
000002d0: c5f4 4b3b 7755 773d 2356 9ebc aab0 8b3c
000002e0: a8bb d4bd 9edf ecbd f1ee ed3c d1d8 fdbd
000002f0: 10f8 7e3d c7ea 04bc ab71 02bd a019 b6bd
00000300: 0968 633d bbc6 90bd e44c 653d a57b 0cbe
00000310: a44f 6e3c 7344 acbb b0a4 1dbc e4e1 10be
00000320: 7501 b73d b395 c73d 0ecd 043a ddc8 c6bc
00000330: 5f8f e13b 66fb c9bc 871d 803c e869 78bd
00000340: 8d76 8b3b d0cc 2dba 5bdd 373d 6192 273d
00000350: d14c cd3b bb09 cbbd e20a 73bd 8724 20bb
00000360: 92d4 65bd b94a 993e 5ff2 34bd 437c 283e
00000370: 6391 1bbd 886b 0c3d c2ca 0b3d ef98 cb3c
00000380: 9124 9e3d d16f a43d c62b b3bd 2d92 b9bc
00000390: 32be debd 6b0d 0bbd fca2 99bd 0fcd c63d
000003a0: b7a6 c63c 3e0d 663d ba00 56bd 722b 353d
000003b0: 9250 613a 47cf 3abd 6788 95bd 2015 b63c
000003c0: 8b78 77bc cee3 38bd 0226 013d 087f abbd
000003d0: 5860 903c 40e1 833d afa1 b03d 2382 7b3b
000003e0: 82f2 493d 47ac 5b3d 6fb9 ee3d 14e1 c8bd
000003f0: 537d 8c3c 41a2 c93d 1641 023e b941 5c3d

decoder.2.bias f4 [32]
0.088335976 -0.037435073 0.0051270346 0.1659441 -0.11477312 0.08355664 0.04210169 0.0034200826
0.15621474 0.13621433 0.0709692 0.03603563 -0.027148861 0.051069926 0.025076928 0.05873607
-0.027624331 0.09745985 -0.017966103 0.053283565 -0.031074345 0.14655842 0.116314024 0.102957115
0.016322145 -0.047320608 0.022360576 0.09215952 -0.04694789 0.017297817 0.07722068 0.04079219
00000000: 7ee9 b43d 8555 19bd af00 a83b 40ed 293e
00000010: 2b0e ebbd be1f ab3d d272 2c3d 7723 603b
00000020: c2f6 1f3e c57b 0b3e 4d58 913d 199a 133d
00000030: 4a67 debc b32e 513d 216e cd3c 3c95 703d
00000040: 6c4c e2bc 0899 c73d a62d 93bc de3f 5a3d
00000050: a08f febc 6913 163e 0c36 ee3d 2edb d23d
00000060: 05b6 853c 41d3 41bd 872d b73c 21be bc3d
00000070: 6e4c 40bd 27b4 8d3c e025 9e3d b615 273d

decoder.4.weight f4 [32, 12, 7]
-0.06426811 -0.063555546 0.11014151 0.1825442 -0.014170365 0.08492205 0.09019876 0.06270434
0.04903936 0.06532601 0.045533612 -0.026974434 -0.029626096 0.023387857 -0.03260034 0.07625774
0.0021337154 0.18005729 0.079048336 0.092512526 0.015443022 0.04211548 0.037899613 -0.013649596
-0.019980762 0.034681782 0.12051908 0.020535454 0.06601945 0.18935773 0.18360484 0.05522181
-0.035226304 0.061744362 -0.101539515 0.00020935124 -0.06906675 -0.021442335 0.010425328 -0.062244922
-0.014121885 -0.023276517 0.027222356 0.05622303 0.046244435 0.02925215 -0.022632051 -0.017272959
-0.09128125 0.0611168 -0.04516313 -0.081302315 -0.06549635 0.062160555 0.09679258 0.02763202
-0.038508926 -0.053221695 0.08050651 0.063387096 -0.061368335 -0.061313737 -0.040146023 0.033469357
0.065503724 0.04675979 -0.03846472 0.0110133905 -0.036067616 -0.019113384 0.0009612759 -0.0004283342
0.07437547 -0.011878086 -0.051484514 -0.06941486 -0.03518696 -0.036893692 0.056196485 0.010991764
-0.021077355 -0.0029481873 -0.054896824 0.057448637 0.0020247803 -0.0037684224 -0.03869072 -0.010742416
-0.016813284 -0.026690498 -0.008916256 -0.03898221 -0.020813141 0.023928432 0.054581728 0.07738397
0.090458795 0.0646279 0.0022911674 0.00092856085 0.015545025 -0.010681087 -0.022719102 -0.020377219
0.021499023 -0.012192848 0.006938302 0.01497317 0.022882888 -0.005337723 0.014870165 -0.015689943
0.091854796 0.17181185 0.20055224 0.18487006 0.18502906 0.18386155 0.115701884 0.06481354
0.12590706 0.21226138 0.2217723 0.18185548 0.15746467 0.10179288 0.034369726 0.013269089
0.06688605 0.09856125 0.05585418 0.011581875 0.019578626 0.01419212 0.0033996678 0.012220603
0.019512253 0.019723061 -0.011194029 -0.009339534 -0.014611555 -0.050758474 -0.08606076 -0.102578804
-0.068098135 -0.07843936 -0.039089832 -0.0517255 -0.11460273 -0.105587825 -0.10488298 -0.097562306
-0.06892889 -0.05009937 -0.03842581 -0.08470681 -0.10617316 -0.11680587 -0.079821564 -0.066193506
-0.036192074 -0.03384626 -0.06276939 -0.065524474 -0.078949645 -0.03902285 -0.05525732 -0.025615314
-0.049932055 -0.11621966 -0.069878735 -0.11966915 -0.049602937 -0.050816454 -0.011201254 -0.060089692
-0.090469725 -0.075219534 -0.14240098 -0.07833829 -0.04451316 -0.020242145 0.023937294 0.028491406
0.03630584 0.052917678 0.031780988 0.028171213 0.013175916 -0.018623719 0.010146466 -0.005112052
-0.05866077 -0.07738026 -0.042496197 -0.06550141 0.04516403 0.12194011 0.115511715 0.034764472
0.056642212 0.0540001 0.031890284 -0.033467516 0.0021763311 -0.038105927 -0.022060655 -0.024388097
-0.008398499 -0.01429628 0.005771135 0.07464645 0.08287283 0.10132266 0.065261476 -0.0021972724
0.021901738 0.02502214 -0.07619069 -0.076787315 0.012527377 -0.0144273285 -0.0633081 -0.02181452
0.11001649 0.064910516 0.10452359 0.1932709 0.17876257 0.036410354 0.04436621 0.009222356
0.058445852 0.16787851 0.15426691 0.07174221 0.014877343 0.004819136 -0.018901229 0.018996228
0.08800531 0.10746027 0.048758242 0.02104283 0.0020632977 0.0663854 -0.018563457 0.0131728975
0.09053989 0.06698148 0.027656136 0.029126842 0.05120358 0.19064467 0.061047323 -0.023322381
00000000: 009f 83bd 6929 82bd df91 e13d deec 3a3e
00000010: d22a 68bc 9deb ad3d 21ba b83d 226b 803d
00000020: 7fdd 483d a5c9 853d 7481 3a3d 7df9 dcbc
00000030: 6db2 f2bc e497 bf3c ef87 05bd 052d 9c3d
00000040: ced5 0b3b f060 383e 18e4 a13d 3577 bd3d
00000050: bb04 7d3c 4881 2c3d a03c 1b3d 8ea2 5fbc
00000060: b2ae a3bc 7c0e 0e3d b5d2 f63d f839 a83c
00000070: 3535 873d fee6 413e e802 3c3e 4430 623d
00000080: 7549 10bd a8e7 7c3d f3f3 cfbd 4c85 5b39
00000090: de72 8dbd d6a7 afbc ffce 2a3c 88f4 7ebd
000000a0: 7b5f 67bc 65ae bebc 6b01 df3c 1f4a 663d
000000b0: ce6a 3d3d 34a2 ef3c da66 b9bc 0580 8dbc
000000c0: aaf1 babd 9c55 7a3d f9fc 38bd d481 a6bd
000000d0: f322 86bd 119c 7e3d 303b c63d 8c5c e23c
000000e0: 89bb 1dbd fefe 59bd 99e0 a43d 18d1 813d
000000f0: 5d5d 7bbd 1d24 7bbd 2870 24bd 2a17 093d
00000100: d126 863d 3287 3f3d 2f8d 1dbd 8271 343c
00000110: a3bb 13bd ac93 9cbc 22fe 7b3a 0b92 e0b9
00000120: 2b52 983d 4e9c 42bc 6de1 52bd 6129 8ebd
00000130: 3420 10bd d71d 17bd 492e 663d cd16 343c
00000140: 6baa acbc 6036 41bb 7edb 60bd 434f 6b3d
00000150: 2db2 043b a3f7 76bb 297a 1ebd f500 30bc
00000160: 03bc 89bc 08a6 dabc 7d15 12bc cfab 1fbd
00000170: 5280 aabc 8f05 c43c 1791 5f3d 7d7b 9e3d
00000180: 7642 b93d a25b 843d 6927 163b aa6a 733a
00000190: 8fb0 7e3c baff 2ebc 691d babc 20ee a6bc
000001a0: b81e b03c 83c4 47bc b25a e33b 0752 753c
000001b0: e574 bb3c 11e8 aebb fea1 733c 3288 80bc
000001c0: 5e1e bc3d 72ef 2f3e 915d 4d3e 944e 3d3e
000001d0: 4278 3d3e 3446 3c3e 1cf5 ec3d f6bc 843d
000001e0: c8ed 003e 0c5b 593e 4718 633e 5338 3a3e
000001f0: 6b3e 213e c978 d03d 45c7 0c3d 9866 593c
00000200: 8efb 883d 7bda c93d 5ac7 643d e8c1 3d3c
00000210: 5b63 a03c 1186 683c f6cc 5e3b ed38 483c
00000220: 29d8 9f3c 4292 a13c 2967 37bc d804 19bc
00000230: 4e65 6fbc 1ee8 4fbd a040 b0bd d614 d2bd
00000240: 0977 8bbd d1a4 a0bd a91c 20bd 1ede 53bd
00000250: d6b4 eabd 6e3e d8bd e3cc d6bd bfce c7bd
00000260: 972a 8dbd ff34 4dbd 6264 1dbd c47a adbd
00000270: 5071 d9bd ea37 efbd 7d79 a3bd 7690 87bd
00000280: 243e 14bd 60a2 0abd 3d8d 80bd b231 86bd
00000290: 5ab0 a1bd 6dd6 1fbd 8055 62bd 35d7 d1bc
000002a0: 8e85 4cbd 9304 eebd 951c 8fbd 1915 f5bd
000002b0: 732c 4bbd ea24 50bd 7785 37bc 9c20 76bd
000002c0: 3148 b9bd b30c 9abd 90d1 11be d36f a0bd
000002d0: 6e53 36bd dbd2 a5bc 2518 c43c cf66 e93c
000002e0: 6fb5 143d 35c0 583d c82c 023d 51c7 e63c
000002f0: ccdf 573c c590 98bc 5d3d 263c 0083 a7bb
00000300: 4746 70bd 8b79 9ebd 7e10 2ebd 9a25 86bd
00000310: ebfd 383d bdbb f93d 6891 ec3d 3165 0e3d
00000320: aa01 683d 352f 5d3d 639f 023d 3c15 09bd
00000330: c7a0 0e3b f614 1cbd 8cb8 b4bc 8cc9 c7bc
00000340: dc99 09bc f23a 6abc ca1b bd3b 3de0 983d
00000350: 3bb9 a93d 4182 cf3d cfa7 853d 1d00 10bb
00000360: 466b b33c 3bfb cc3c dd09 9cbd ab42 9dbd
00000370: a13f 4d3c 9a60 6cbc ada7 81bd 5db4 b2bc
00000380: 5350 e13d ceef 843d 7710 d63d cfe8 453e
00000390: 890d 373e 0623 153d 58b9 353d 5d19 173c
000003a0: eb64 6f3d 58e8 2b3e 25f8 1d3e 94ed 923d
000003b0: 19c0 733c d8e9 9d3b c0d6 9abc fa9d 9b3c
000003c0: 213c b43d 2114 dc3d b9b6 473d 0362 ac3c
000003d0: 6438 073b 12f5 873d 6412 98bc 23d3 573c
000003e0: fa6c b93d 962d 893d 1f8f e23c 6a9b ee3c
000003f0: d8ba 513d 5b38 433e c20c 7a3d 940e bfbc

decoder.4.bias f4 [12]
-0.0030122353 0.010022316 0.09070316 0.24176037 -0.018458715 0.07407869 0.22556888 0.12418974
0.010996916 -0.04211175 -0.056466214 -0.067529954
00000000: ec68 45bb a434 243c 94c2 b93d 0890 773e
00000010: bb36 97bc 91b6 973d 87fb 663e 3157 fe3d
00000020: 692c 343c 5f7d 2cbd 1e49 67bd 254d 8abd
